rl-training/checkpoints/temp.pth (torch, 296369 bytes, 36 tensors)

conv1.weight f4 [32, 4, 3, 3]
-0.100084506 0.1162108 0.079984985 -0.047884565 -0.035481535 0.060586732 -0.09215435 0.1651793
-0.109228455 0.12707502 -0.06823169 0.11494943 -0.15560488 0.10687399 -0.039644957 0.16128969
0.040724497 -0.11509677 0.058832943 0.16049495 -0.114275835 0.06734377 -0.16022506 0.0025552313
-0.15666011 -0.06703542 -0.15320641 -0.13976124 -0.058860026 0.15786871 0.027211726 0.13222371
-0.004342854 0.026479721 0.13198653 0.16433416 0.10100047 0.15967181 -0.16189007 0.14677528
0.11845394 -0.08071395 -0.10568057 -0.0113223 -0.09326261 -0.023739457 0.076556444 0.13740937
-0.100734375 -0.16496247 -0.060675763 0.052164197 -0.10638142 0.14423418 0.09397094 0.0026999712
-0.05518037 0.018579245 -0.16538408 -0.16101585 -0.09644829 0.062376164 0.11293292 -0.111759126
-0.09816003 0.013985872 -0.065462135 0.1559127 -0.0070710583 -0.14066133 0.16309331 0.0963171
0.04477918 -0.004439851 0.1217834 -0.09223537 0.12562454 -0.056978665 0.09525365 -0.07493192
-0.068718836 0.06467871 -0.032710575 -0.14279741 -0.04665333 0.02189396 -0.05246985 0.1269605
0.07726469 0.036074102 0.06345596 0.13946664 -0.072663546 0.103848085 -0.04953947 -0.014786145
0.012768051 0.080043696 -0.15779063 0.016538879 0.097062945 0.123302326 -0.07244384 0.09117987
0.15683421 -0.07227872 -0.070757985 0.14257509 -0.059498608 -0.14891987 0.023028892 0.10740658
0.07734643 0.0022638242 0.11011108 -0.12878692 0.028529227 0.078411445 0.11209619 -0.009246151
0.11664443 0.07782988 -0.1597663 0.03679961 -0.07095462 -0.051077586 -0.03595833 -0.012274504
-0.100795195 0.11395113 -0.089650534 -0.09212075 0.017607292 -0.0761811 -0.03681141 -0.013009608
0.14771032 0.0048216386 -0.13458577 0.09219365 0.0039711595 -0.0046711965 0.022282422 0.017631432
-0.08782256 0.13821125 0.0449363 -0.09134644 -0.07106801 0.119237944 -0.05352863 -0.0947509
0.019875586 -0.13331804 0.013510307 -0.00031063956 -0.064127564 -0.14006042 -0.1421765 0.0030972164
0.008725345 0.1116667 0.16486329 0.11574908 -0.0015588006 -0.074817404 -0.11753349 -0.037175953
-0.08371987 -0.052288614 0.11851152 -0.12558413 0.15879226 0.15097319 -0.007258296 -0.07904613
0.16361175 0.0073686442 -0.10773033 0.14637026 -0.055261575 -0.11270493 0.043146294 -0.018738192
0.09979987 -0.075709805 0.12679753 -0.089834295 0.06488063 0.084802985 -0.044202965 0.054020267
0.12092984 0.081788085 -0.113523506 0.12780486 -0.041477423 -0.11543064 0.10147389 -0.104759976
0.057388723 -0.11223394 -0.020465076 -0.026591957 0.060826384 0.13627356 -0.058273755 0.0026462674
-0.021719676 -0.11000846 0.16392684 -0.11607071 0.03341649 0.06098632 -0.008808891 0.0716456
0.15898871 0.03552848 0.14321211 -0.065839395 -0.050667368 -0.131769 -0.13031852 -0.13410631
0.14390646 -0.07100813 0.027229926 0.009888331 -0.1463694 -0.047358833 -0.120649636 0.08417978
-0.16301969 0.12199509 0.106985316 0.16077255 0.015987119 -0.058834754 -0.10698497 0.09389657
0.015635889 -0.040510517 0.0067996583 -0.010656456 -0.12656228 -0.10461267 -0.06169101 -0.13908634
-0.09943335 -0.04149785 -0.13060004 0.061349075 0.10065874 0.08815869 0.16171114 0.08941629
00000000: 1bf9 ccbd eeff ed3d 2bcf a33d 9b22 44bd
00000010: 1655 11bd cb29 783d 6bbb bcbd c324 293e
00000020: 2bb3 dfbd f41f 023e 0ebd 8bbd 9b6a eb3d
00000030: e356 1fbe c0e0 da3d c062 22bd 2029 253e
00000040: bbce 263d dbb7 ebbd d0fa 703d ca58 243e
00000050: 7309 eabd 88eb 893d 0a12 24be ab75 273b
00000060: 826b 20be de49 89bd 24e2 1cbe 921d 0fbe
00000070: 3617 71bd 56a8 213e 20eb de3c a765 073e
00000080: 804e 8ebb 00ec d83c 7a27 073e 3747 283e
00000090: 56d9 ce3d 0281 233e 83c6 25be 424c 163e
000000a0: fb97 f23d 5b4d a5bd 0e6f d8bd 2b81 39bc
000000b0: 7800 bfbd 4079 c2bc a0c9 9c3d 0bb5 0c3e
000000c0: d34d cebd eceb 28be 2687 78bd 20aa 553d
000000d0: 80de d9bd 20b2 133e d673 c03d 00f2 303b
000000e0: d004 62bd 8033 983c 725a 29be 57e1 24be
000000f0: ae86 c5bd 267e 7f3d 6049 e73d f8e1 e4bd
00000100: 2008 c9bd 0025 653c 0311 86bd 94a7 1f3e
00000110: 56b4 e7bb 8609 10be ef01 273e e641 c53d
00000120: 606a 373d 2b7c 91bb 9369 f93d e6e5 bcbd
00000130: b8a3 003e 7662 69bd 5814 c33d e875 99bd
00000140: 76bc 8cbd 4676 843d 86fb 05bd 7c39 12be
00000150: 9017 3fbd f65a b33c a0ea 56bd ef01 023e
00000160: f33c 9e3d 70c2 133d 33f5 813d 58d0 0e3e
00000170: a0d0 94bd 4eae d43d e6e9 4abd 9641 72bc
00000180: 1631 513c f3ed a33d de93 21be 8b7c 873c
00000190: f0c8 c63d ee85 fc3d 705d 94bd 83bc ba3d
000001a0: 2699 203e de06 94bd 90e9 90bd 34ff 113e
000001b0: d0b4 73bd 737e 18be 16a7 bc3c fbf7 db3d
000001c0: ce67 9e3d ab5c 143b eb81 e13d b8e0 03be
000001d0: 20b6 e93c 2e96 a03d b092 e53d 2b7d 17bc
000001e0: 46e3 ee3d 4665 9f3d c799 23be 30bb 163d
000001f0: a850 91bd bb36 51bd 0b49 13bd 001b 49bc
00000200: b66d cebd 365f e93d b39a b7bd cea9 bcbd
00000210: 2b3d 903c d604 9cbd 90c7 16bd 4026 55bc
00000220: 6041 173e d6fe 9d3b dad0 09be 06d0 bc3d
00000230: 8020 823b d610 99bb a089 b63c cb6f 903c
00000240: 50dc b3bd 4087 0d3e 200f 383d d813 bbbd
00000250: 1b8c 91bd 0633 f43d d640 5bbd c30c c2bd
00000260: 20d2 a23c 8684 08be 565a 5d3c 56dd a2b9
00000270: 5055 83bd 006c 0fbe b796 11be abfa 4a3b
00000280: c0f4 0e3c 83b1 e43d ecd1 283e db0d ed3d
00000290: ab50 ccba de39 99bd 66b5 f0bd d045 18bd
000002a0: 5375 abbd 962c 56bd 2bb6 f23d 2099 00be
000002b0: 709a 223e b798 1a3e 00d7 edbb f0e2 a1bd
000002c0: d789 273e ab74 f13b b8a1 dcbd 16e2 153e
000002d0: f659 62bd d8d1 e6bd 2bba 303d d680 99bc
000002e0: e063 cc3d be0d 9bbd 36d7 013e 0bfb b7bd
000002f0: 23e0 843d 30ad ad3d 2b0e 35bd 5b44 5d3d
00000300: 10aa f73d 8380 a73d 037f e8bd 47df 023e
00000310: 3be4 29bd e666 ecbd 8bd1 cf3d 668c d6bd
00000320: 7010 6b3d e8da e5bd 60a6 a7bc 60d7 d9bc
00000330: 1625 793d 4c8b 0b3e 76b0 6ebd 006d 2d3b
00000340: 76ed b1bc 1e4c e1bd 70dc 273e 7bb6 edbd
00000350: bbdf 083d cbcc 793d 2b53 10bc eeba 923d
00000360: f0cd 223e 5086 113d 32a6 123e ced6 86bd
00000370: 9688 4fbd 74ee 06be 3872 05be 2a53 09be
00000380: 375c 133e b66c 91bd 4b11 df3c ab02 223c
00000390: dce1 15be 56fb 41bd 2817 f7bd 7366 ac3d
000003a0: a2ee 26be 90d8 f93d 1e1b db3d 8fa1 243e
000003b0: 6bf7 823c b6fc 70bd f01a dbbd d84c c03d
000003c0: d616 803c 5bee 25bd abcf de3b 6b98 2ebc
000003d0: 8b99 01be 2b3f d6bd b6af 7cbd a66c 0ebe
000003e0: b6a3 cbbd a6f9 29bd 04bc 05be 2b49 7b3d
000003f0: 2b26 ce3d 8b8c b43d 9b97 253e e31f b73d

bn1.weight f4 [32]
1.0 1.0 1.0 1.0 1.0 1.0 1.0 1.0
1.0 1.0 1.0 1.0 1.0 1.0 1.0 1.0
1.0 1.0 1.0 1.0 1.0 1.0 1.0 1.0
1.0 1.0 1.0 1.0 1.0 1.0 1.0 1.0
00000000: 0000 803f 0000 803f 0000 803f 0000 803f
00000010: 0000 803f 0000 803f 0000 803f 0000 803f
00000020: 0000 803f 0000 803f 0000 803f 0000 803f
00000030: 0000 803f 0000 803f 0000 803f 0000 803f
00000040: 0000 803f 0000 803f 0000 803f 0000 803f
00000050: 0000 803f 0000 803f 0000 803f 0000 803f
00000060: 0000 803f 0000 803f 0000 803f 0000 803f
00000070: 0000 803f 0000 803f 0000 803f 0000 803f

bn1.bias f4 [32]
0.0 0.0 0.0 0.0 0.0 0.0 0.0 0.0
0.0 0.0 0.0 0.0 0.0 0.0 0.0 0.0
0.0 0.0 0.0 0.0 0.0 0.0 0.0 0.0
0.0 0.0 0.0 0.0 0.0 0.0 0.0 0.0
00000000: 0000 0000 0000 0000 0000 0000 0000 0000
00000010: 0000 0000 0000 0000 0000 0000 0000 0000
00000020: 0000 0000 0000 0000 0000 0000 0000 0000
00000030: 0000 0000 0000 0000 0000 0000 0000 0000
00000040: 0000 0000 0000 0000 0000 0000 0000 0000
00000050: 0000 0000 0000 0000 0000 0000 0000 0000
00000060: 0000 0000 0000 0000 0000 0000 0000 0000
00000070: 0000 0000 0000 0000 0000 0000 0000 0000

bn1.running_mean f4 [32]
0.0 0.0 0.0 0.0 0.0 0.0 0.0 0.0
0.0 0.0 0.0 0.0 0.0 0.0 0.0 0.0
0.0 0.0 0.0 0.0 0.0 0.0 0.0 0.0
0.0 0.0 0.0 0.0 0.0 0.0 0.0 0.0
00000000: 0000 0000 0000 0000 0000 0000 0000 0000
00000010: 0000 0000 0000 0000 0000 0000 0000 0000
00000020: 0000 0000 0000 0000 0000 0000 0000 0000
00000030: 0000 0000 0000 0000 0000 0000 0000 0000
00000040: 0000 0000 0000 0000 0000 0000 0000 0000
00000050: 0000 0000 0000 0000 0000 0000 0000 0000
00000060: 0000 0000 0000 0000 0000 0000 0000 0000
00000070: 0000 0000 0000 0000 0000 0000 0000 0000

bn1.running_var f4 [32]
1.0 1.0 1.0 1.0 1.0 1.0 1.0 1.0
1.0 1.0 1.0 1.0 1.0 1.0 1.0 1.0
1.0 1.0 1.0 1.0 1.0 1.0 1.0 1.0
1.0 1.0 1.0 1.0 1.0 1.0 1.0 1.0
00000000: 0000 803f 0000 803f 0000 803f 0000 803f
00000010: 0000 803f 0000 803f 0000 803f 0000 803f
00000020: 0000 803f 0000 803f 0000 803f 0000 803f
00000030: 0000 803f 0000 803f 0000 803f 0000 803f
00000040: 0000 803f 0000 803f 0000 803f 0000 803f
00000050: 0000 803f 0000 803f 0000 803f 0000 803f
00000060: 0000 803f 0000 803f 0000 803f 0000 803f
00000070: 0000 803f 0000 803f 0000 803f 0000 803f

res_blocks.0.conv1.weight f4 [32, 32, 3, 3]
-0.03741314 0.005468322 0.029312318 -0.03243438 0.03662923 -0.057971038 -0.019780155 -0.018589599
0.009926756 -0.04891076 0.028353253 -0.058772866 0.022197228 0.052511003 -0.002203936 -0.014442306
-0.028738867 -0.008584871 -0.034498785 -0.054483984 0.009019994 0.035235193 0.0050351364 0.0035773471
-0.0044630845 -0.020290006 -0.037516735 0.04071807 0.024020381 0.016814774 -0.05461298 -0.025272038
-0.030468842 0.006248846 0.012118476 -0.04900741 0.017540297 -0.047133636 -0.041915387 0.054132704
-0.04475503 -0.03664614 -0.046491668 0.034746002 -0.034606785 -0.058836732 -0.005370773 -0.058163416
0.030114569 -0.0041302787 -0.04733027 0.053517614 -0.054095846 -0.03105849 0.0438888 0.01712335
-0.02258054 0.046059538 -0.0014544667 -0.005016044 -0.055811103 0.033074956 -0.053281307 -0.05486275
0.03063958 -0.057425328 -0.032382652 0.0071202535 0.00018871954 0.005055065 -0.039176542 0.050816532
0.013056384 -0.05308881 -0.00969695 -0.048663076 0.010663244 0.013528703 -0.053065088 0.0061295987
-0.010601442 -0.029158749 -0.054639075 -0.038442723 -0.014967751 0.0030711566 0.012998671 -0.010213277
0.029989718 0.0517887 0.043487553 -0.04622906 -0.00040825544 0.031494536 0.048655733 0.02294856
-0.020629084 -0.036928352 -0.02215053 -0.045480926 -0.04218644 0.030784937 -0.0118809715 0.03680119
-0.038416382 0.008173503 0.05630663 0.009633849 -0.032412127 0.02948264 -0.02637207 -0.022613049
-0.017938795 -0.023536796 -0.044208758 0.04209857 -0.0074145016 -0.007127657 0.029532015 -0.029853288
-0.025718253 0.0035315126 -0.01881937 0.009847808 -0.009974895 0.01134813 -0.037495103 0.025577117
-0.04969705 0.021991348 0.0035196622 -0.0008994138 -0.012571443 -0.04525114 -0.025553389 -0.056163263
-0.050583325 0.0065103886 0.03354776 -0.023535587 -0.010460897 0.042909965 0.053622086 0.019459544
0.021690348 0.01352739 -0.0076949187 0.022454612 -0.031417545 0.049285367 -0.04537212 0.05299513
0.0026260647 0.006867885 -0.04453392 -0.006396627 -0.033912443 -0.017353704 -0.028173426 -0.01867512
0.033272687 -0.05727579 0.047608316 0.0041057635 0.025218314 0.056263674 0.036474016 -0.008423631
-0.046967972 0.04236493 0.0014882474 0.009040408 0.01984698 -0.0070082624 0.047080852 0.02352118
-0.011985404 0.05770607 -0.011731175 -0.01775311 -0.03415464 0.0065694083 -0.051340595 0.056307893
-0.04719689 -0.021875156 -0.051319346 0.017689187 0.03436996 -0.04597556 0.029948778 0.05585184
-0.036151756 -0.018461464 -0.000951711 -0.02940358 -0.04163893 0.02087992 -0.013480543 -0.011738537
-0.0001290396 -0.005610961 0.03186413 0.018620463 -0.03813563 0.05004284 0.04051686 -0.044004947
0.015665386 -0.0322128 0.048135966 0.054575946 0.005023546 0.023920085 0.035483833 -0.0057989075
0.057964623 0.057644814 0.0026465552 -0.02135056 -0.041728612 -0.04256463 0.005340652 0.025824407
0.050105136 -0.010362568 -0.028365089 0.028471889 -0.057215814 0.044545516 0.022623768 0.049273953
-0.035046272 -0.050757647 0.003956669 0.04531004 -0.041081116 0.00039181116 -0.05509989 0.015422944
-0.0031144624 0.03530556 -0.020583559 0.043248355 0.051407397 0.010561888 -0.037660178 0.011288394
-0.03587272 0.0015537576 0.055768915 0.043652195 -0.047860816 0.024830619 0.048291817 -0.028431688
00000000: 853e 19bd 9c2f b33b 6320 f03c ead9 04bd
00000010: 8808 163d 0a73 6dbd fe09 a2bc 3749 98bc
00000020: d5a3 223c a656 48bd 1545 e83c d1bb 70bd
00000030: f6d6 b53c c715 573d e96f 10bb 6c9f 6cbc
00000040: c66d ebbc 8fa7 0cbc 994e 0dbd 992a 5fbd
00000050: 99c8 133c c752 103d c9fd a43b ed71 6a3b
00000060: 113f 92bb 3a37 a6bc 26ab 19bd fec7 263d
00000070: 64c6 c43c 23bf 893c dcb1 5fbd 4e07 cfbc
00000080: cb99 f9bc 1fc3 cc3b 938c 463c febb 48bd
00000090: abb0 8f3c 330f 41bd 78af 2bbd 41ba 5d3d
000000a0: 0d51 37bd 431a 16bd 0c6e 3ebd d351 0e3d
000000b0: d8bf 0dbd c9fe 70bd 4ffd afbb c33c 6ebd
000000c0: d4b2 f63c 4a57 87bb 63dd 41bd 4935 5b3d
000000d0: 9b93 5dbd 606e febc bec4 333d 4546 8c3c
000000e0: d3fa b8bc eda8 3c3d cea3 beba a05d a4bb
000000f0: 2f9a 64bd 9b79 073d 803d 5abd c3b7 60bd
00000100: dbff fa3c d236 6bbd aca3 04bd 0451 e93b
00000110: 04e3 4539 f5a4 a53b 9577 20bd ff24 503d
00000120: 72ea 553c a773 59bd f5df 1ebc ef52 47bd
00000130: e3b4 2e3c 7ea7 5d3c c75a 59bd cdda c83b
00000140: acb1 2dbc 54de eebc 39cd 5fbd 1e76 1dbd
00000150: 4c3b 75bc 7545 493b 61f8 543c 9755 27bc
00000160: ffac f53c 6320 543d 0120 323d af5a 3dbd
00000170: 1e0b d6b9 6a00 013d 3c4b 473d 9efe bb3c
00000180: 53fe a8bc 2f42 17bd 0775 b5bc 354a 3abd
00000190: b0cb 2cbd b130 fc3c 68a8 42bc d8bc 163d
000001a0: 7f5a 1dbd 28ea 053c c8a1 663d 4bd7 1d3c
000001b0: 94c2 04bd 9485 f13c 3d0a d8bc 003f b9bc
000001c0: 61f4 92bc 3dd0 c0bc 3e14 35bd 8d6f 2c3d
000001d0: 59f5 f2bb 1f8f e9bb 20ed f13c e28e f4bc
000001e0: 16af d2bc f370 673b 142b 9abc b358 213c
000001f0: be6d 23bc 82ed 393c 7794 19bd 1a87 d13c
00000200: 228f 4bbd 3327 b43c 22aa 663b a3c6 6bba
00000210: 74f8 4dbc 4259 39bd 5755 d1bc 730b 66bd
00000220: 7630 4fbd 1955 d53b 6069 093d b4cd c0bc
00000230: 2f64 2bbc 5cc2 2f3d d5a2 5b3d 9f69 9f3c
00000240: f5af b13c fca1 5d3c a825 fcbb bcf2 b73c
00000250: afaf 00bd 74df 493d 1ed8 39bd 6c11 593d
00000260: 0e1a 2c3b ff0b e13b 3369 36bd cc9a d1bb
00000270: c6e7 0abd 5b29 8ebc f5cb e6bc 91fc 98bc
00000280: f148 083d 059a 6abd f000 433d a489 863b
00000290: a396 ce3c bd74 663d c765 153d 4503 0abc
000002a0: 7d61 40bd d986 2d3d 4c11 c33a 381e 143c
000002b0: 2296 a23c 91a5 e5bb dad7 403d 7daf c03c
000002c0: 6e5e 44bc 335d 6c3d 1d34 40bc f86e 91bc
000002d0: bce5 0bbd 3144 d73b 844a 52bd 1ba3 663d
000002e0: 8751 41bd 8733 b3bc 3c34 52bd eae8 903c
000002f0: 84c7 0c3d de50 3cbd 2457 f53c e6c4 643d
00000300: dd13 14bd 7f3c 97bc 3e7c 79ba c7df f0bc
00000310: 958d 2abd 5e0c ab3c 7fdd 5cbc fe52 40bc
00000320: ce4e 07b9 27dc b7bb f683 023d f189 983c
00000330: 1b34 1cbd b9f9 4c3d 02f5 253d 883e 34bd
00000340: b254 803c 92f1 03bd 382a 453d 078b 5f3d
00000350: 8f9c a43b 0ef4 c33c 7f57 113d c304 bebb
00000360: 506c 6d3d f81c 6c3d d471 2d3b 5fe7 aebc
00000370: 9feb 2abd 4058 2ebd a300 af3b b58d d33c
00000380: 0b3b 4d3d c3c7 29bc e75d e8bc e13d e93c
00000390: 215b 6abd 5c75 363d 7b55 b93c 7cd3 493d
000003a0: ae8c 0fbd 40e7 4fbd f2a6 813b 0597 393d
000003b0: ac44 28bd 016c cd39 6cb0 61bd 84b0 7c3c
000003c0: 021c 4cbb 909c 103d da9e a8bc 3025 313d
000003d0: 9090 523d c50b 2d3c 8f41 1abd f5f2 383c
000003e0: 46ef 12bd 74a7 cb3a f26d 643d a5cc 323d
000003f0: b409 44bd 9569 cb3c a4cd 453d 92e9 e8bc

res_blocks.0.bn1.weight f4 [32]
1.0 1.0 1.0 1.0 1.0 1.0 1.0 1.0
1.0 1.0 1.0 1.0 1.0 1.0 1.0 1.0
1.0 1.0 1.0 1.0 1.0 1.0 1.0 1.0
1.0 1.0 1.0 1.0 1.0 1.0 1.0 1.0
00000000: 0000 803f 0000 803f 0000 803f 0000 803f
00000010: 0000 803f 0000 803f 0000 803f 0000 803f
00000020: 0000 803f 0000 803f 0000 803f 0000 803f
00000030: 0000 803f 0000 803f 0000 803f 0000 803f
00000040: 0000 803f 0000 803f 0000 803f 0000 803f
00000050: 0000 803f 0000 803f 0000 803f 0000 803f
00000060: 0000 803f 0000 803f 0000 803f 0000 803f
00000070: 0000 803f 0000 803f 0000 803f 0000 803f

res_blocks.0.bn1.bias f4 [32]
0.0 0.0 0.0 0.0 0.0 0.0 0.0 0.0
0.0 0.0 0.0 0.0 0.0 0.0 0.0 0.0
0.0 0.0 0.0 0.0 0.0 0.0 0.0 0.0
0.0 0.0 0.0 0.0 0.0 0.0 0.0 0.0
00000000: 0000 0000 0000 0000 0000 0000 0000 0000
00000010: 0000 0000 0000 0000 0000 0000 0000 0000
00000020: 0000 0000 0000 0000 0000 0000 0000 0000
00000030: 0000 0000 0000 0000 0000 0000 0000 0000
00000040: 0000 0000 0000 0000 0000 0000 0000 0000
00000050: 0000 0000 0000 0000 0000 0000 0000 0000
00000060: 0000 0000 0000 0000 0000 0000 0000 0000
00000070: 0000 0000 0000 0000 0000 0000 0000 0000

res_blocks.0.bn1.running_mean f4 [32]
0.0 0.0 0.0 0.0 0.0 0.0 0.0 0.0
0.0 0.0 0.0 0.0 0.0 0.0 0.0 0.0
0.0 0.0 0.0 0.0 0.0 0.0 0.0 0.0
0.0 0.0 0.0 0.0 0.0 0.0 0.0 0.0
00000000: 0000 0000 0000 0000 0000 0000 0000 0000
00000010: 0000 0000 0000 0000 0000 0000 0000 0000
00000020: 0000 0000 0000 0000 0000 0000 0000 0000
00000030: 0000 0000 0000 0000 0000 0000 0000 0000
00000040: 0000 0000 0000 0000 0000 0000 0000 0000
00000050: 0000 0000 0000 0000 0000 0000 0000 0000
00000060: 0000 0000 0000 0000 0000 0000 0000 0000
00000070: 0000 0000 0000 0000 0000 0000 0000 0000

res_blocks.0.bn1.running_var f4 [32]
1.0 1.0 1.0 1.0 1.0 1.0 1.0 1.0
1.0 1.0 1.0 1.0 1.0 1.0 1.0 1.0
1.0 1.0 1.0 1.0 1.0 1.0 1.0 1.0
1.0 1.0 1.0 1.0 1.0 1.0 1.0 1.0
00000000: 0000 803f 0000 803f 0000 803f 0000 803f
00000010: 0000 803f 0000 803f 0000 803f 0000 803f
00000020: 0000 803f 0000 803f 0000 803f 0000 803f
00000030: 0000 803f 0000 803f 0000 803f 0000 803f
00000040: 0000 803f 0000 803f 0000 803f 0000 803f
00000050: 0000 803f 0000 803f 0000 803f 0000 803f
00000060: 0000 803f 0000 803f 0000 803f 0000 803f
00000070: 0000 803f 0000 803f 0000 803f 0000 803f

res_blocks.0.conv2.weight f4 [32, 32, 3, 3]
0.02534316 0.038375456 0.025483824 0.045583405 -0.016001444 -0.040040456 -0.040348716 -0.05528992
-0.05652113 0.055122394 0.056669682 -0.013940878 0.035599098 0.05320509 0.051714927 0.040671736
-0.0017229842 -0.033743717 0.049126748 0.008071417 0.009291617 -0.02222732 -0.020836292 0.007726536
0.037500806 -0.047665235 -0.022045521 -0.033543047 -0.036780283 -0.021752797 0.053601667 0.023965176
0.015655601 -0.039105203 0.013998675 0.009995252 0.024042705 0.03800601 0.04300469 -0.002627582
0.010399629 0.009702865 0.039189313 -0.049710542 -0.01910065 -0.05585341 0.041163858 -0.053501077
-0.0053784717 0.055021722 -0.037739903 -0.026309138 0.0022371337 0.012506122 0.0028223707 0.056429975
-0.011826167 -0.045117028 0.022047691 -0.040141657 0.055087317 0.055193406 0.040349636 0.052830927
-0.04568096 -0.04887392 0.048235692 0.013528605 -0.034908533 -0.05012192 -0.054806855 0.015164507
0.04408085 -0.0346698 0.056610756 0.050325558 0.008517808 -0.04095343 0.046627212 0.047468353
0.056646306 -0.05340044 0.05275299 0.046619345 -0.033555064 -0.025667423 0.02380442 -0.01910523
0.00028194135 0.034089494 -0.040256795 -0.032774318 -0.025276555 0.00730629 -0.036601048 0.041931268
-0.0073536625 0.0051708072 -0.057287823 -0.038945746 -0.033807736 -0.017216306 -0.050179597 -0.034994423
-0.044191077 0.005406654 -0.04921982 -0.0028137588 0.022793872 -0.05111527 0.0038689051 0.0017379604
0.01247284 0.009491534 0.015818154 0.05143921 0.031270202 0.048384696 0.036242947 -0.03331677
0.023706036 0.055132642 -0.04292513 -0.0010080542 -0.03379467 0.02940316 -0.0063296417 0.050502792
-0.05655402 0.0063708546 -0.0207218 0.04035426 0.04516342 -0.018656977 -0.03800092 -0.018033233
0.024963051 -0.047864974 -1.1442869e-05 0.033789612 -0.025489325 -0.009974993 0.020238684 -0.0321225
0.05230053 0.056939937 -0.056193158 0.045049086 0.03942129 0.002322713 -0.009373052 -0.050524794
-0.021689879 -0.009593901 -0.021639049 -0.053988878 -0.017692411 -0.05091655 -0.0026499268 -0.04198944
0.0020705413 0.0114549305 0.040011346 0.013215334 0.015809655 -0.027889308 -0.026382502 -0.016246803
0.040387955 0.0008578921 -0.0007724183 -0.050187394 -0.03395256 -0.056730002 0.013402796 -0.0030751675
0.025934044 -0.008083218 -0.02613951 0.019259937 0.04308209 -0.052759986 0.0135196345 0.025412498
0.022167662 -0.017477294 0.0016584153 0.045891665 -0.015519812 0.0020494396 -0.037834242 -0.039018113
-0.025524722 0.023169098 -0.049259644 -0.032886546 -0.05033016 -0.040447656 0.0059277085 0.0006984927
-0.05654462 0.03342855 0.008296804 0.025884382 -0.008880615 -0.04467139 0.055895615 -0.039384782
0.05572173 -0.056405254 -0.044540517 -0.02834391 0.005314837 -0.041635256 0.010293378 0.02449109
0.037808876 -0.052460205 -0.031585567 0.0133785475 -0.011391338 -0.03404625 -0.0020300732 0.038523786
0.033950165 -0.020271026 -0.016930606 0.013174157 0.05007103 -0.033618372 0.0458924 0.040293653
-0.030814601 -0.021416787 -0.053032536 0.042693086 -0.024592672 0.013900403 -0.028382152 0.018368475
0.02279131 -0.039763466 -0.047505315 0.019474583 -0.02891767 0.005043039 -0.046139617 -0.0050308513
-0.043919925 0.016995028 -0.014224836 0.009763444 0.039243985 -0.05665446 -0.004809412 -0.050564058
00000000: 759c cf3c 952f 1d3d 74c3 d03c aab5 3a3d
00000010: 7615 83bc 7601 24bd b244 25bd af77 62bd
00000020: b382 67bd 05c8 613d 781e 683d 4868 64bc
00000030: 5cd0 113d 95ed 593d 08d3 533d 6897 263d
00000040: c2d5 e1ba da36 0abd 2139 493d fa3d 043c
00000050: de3b 183c 1216 b6bc dfb0 aabc e22e fd3b
00000060: 729a 193d 9f3c 43bd cf98 b4bc 6f64 09bd
00000070: eca6 16bd ec32 b2bc 6c8d 5b3d 9e52 c43c
00000080: 2d40 803c c72c 20bd b35a 653c 20c3 233c
00000090: 35f5 c43c 31ac 1b3d b025 303d 8333 2cbb
000000a0: 3563 2a3c c4f8 1e3c f984 203d 489d 4bbd
000000b0: f778 9cbc 8cc6 64bd 6f9b 283d f223 5bbd
000000c0: e43d b0bb 755e 613d 2895 1abd 4386 d7bc
000000d0: e09c 123b 7ae6 4c3c 86f7 383b 1e23 673d
000000e0: 8ac2 41bc a2cc 38bd 5c9d b43c 946b 24bd
000000f0: 3da3 613d 7b12 623d a945 253d 3e65 583d
00000100: f51b 3bbd 0530 48bd ca92 453d 15a7 5d3c
00000110: 40fc 0ebd a44c 4dbd 277d 60bd 8d74 783c
00000120: 1f8e 343d ec01 0ebd aee0 673d 2c22 4e3d
00000130: 478e 0b3c c9be 27bd 2dfc 3e3d 2d6e 423d
00000140: f505 683d 6bba 5abd 8513 583d edf3 3e3d
00000150: 0971 09bd 7d44 d2bc 7d01 c33c 9282 9cbc
00000160: 87d1 9339 6da1 0b3d 4fe4 24bd 5d3e 06bd
00000170: c710 cfbc 9a69 ef3b fbea 15bd 1fc0 2b3d
00000180: fef6 f0bb e06f a93b a3a6 6abd 9385 1fbd
00000190: fb79 0abd 3609 8dbc 1f89 4dbd 5056 0fbd
000001a0: b401 35bd 4d2a b13b b99a 49bd 0a67 38bb
000001b0: 37ba ba3c 3f5e 51bd 758d 7d3b 46cc e33a
000001c0: e25a 4c3c 6182 1b3c 1395 813c ecb1 523d
000001d0: 2f15 003d 082f 463d 7c73 143d 2a77 08bd
000001e0: 2933 c23c c4d2 613d 43d2 2fbd b020 84ba
000001f0: 486c 0abd e5de f03c e268 cfbb 04dc 4e3d
00000200: 30a5 67bd 9ac2 d03b c4c0 a9bc 824a 253d
00000210: 47fd 383d 84d6 98bc daa6 1bbd 6eba 93bc
00000220: 507f cc3c 100e 44bd c0fa 3fb7 fa66 0a3d
00000230: fdce d0bc 276e 23bc 99cb a53c e292 03bd
00000240: 1539 563d da39 693d cc2a 66bd 6485 383d
00000250: 3878 213d a838 183b 6e91 19bc 16f3 4ebd
00000260: f9ae b1bc bd2f 1dbc 6044 b1bc 7123 5dbd
00000270: adef 90bc df8d 50bd 65aa 2dbb 1efd 2bbd
00000280: ebb1 073b 76ad 3b3c f0e2 233d 2185 583c
00000290: 4083 813c 1e78 e4bc 1e20 d8bc 0418 85bc
000002a0: d76d 253d 2ae4 603a 1d7c 4aba 4c91 4dbd
000002b0: d711 0bbd b85d 68bd 6797 5b3c c088 49bb
000002c0: a273 d43c 796f 04bc 8722 d6bc 04c7 9d3c
000002d0: d876 303d db1a 58bd 7581 5d3c df2d d03c
000002e0: f598 b53c 8b2c 8fbc 2f5f d93a e6f8 3b3d
000002f0: cf46 7ebc e44f 063b 14f8 1abd 75d1 1fbd
00000300: 3919 d1bc 1fcd bd3c 7bc4 49bd 0bb4 06bd
00000310: ff26 4ebd 71ac 25bd 393d c23b 0d1b 373a
00000320: 559b 67bd 60ec 083d 51ef 073c 7c0b d43c
00000330: 0080 11bc 59f9 36bd cdf2 643d f051 21bd
00000340: 783c 643d 3209 67bd 1e70 36bd 7d31 e8bc
00000350: 1628 ae3b bb89 2abd 8ea5 283c 8aa1 c83c
00000360: 7bdd 1a3d 83e0 56bd de5f 01bd b231 5b3c
00000370: bca2 3abc 1574 0bbd fa0a 05bb 1ecb 1d3d
00000380: 540f 0b3d 6c0f a6bc 0eb2 8abc 6bd8 573c
00000390: 4817 4d3d 6bb3 09bd abf9 3b3d f50a 253d
000003a0: e76e fcbc 4272 afbc a538 59bd f2de 2e3d
000003b0: 9276 c9bc 84be 633c b081 e8bc 7c79 963c
000003c0: d7b4 ba3c 04df 22bd ef94 42bd 2989 9f3c
000003d0: c0e4 ecbc 1440 a53b e5fc 3cbd d7d9 a4bb
000003e0: 61e5 33bd 2839 8b3c 490f 69bc daf6 1f3c
000003f0: 4dbe 203d 820e 68bd 4698 9dbb 421c 4fbd

res_blocks.0.bn2.weight f4 [32]
1.0 1.0 1.0 1.0 1.0 1.0 1.0 1.0
1.0 1.0 1.0 1.0 1.0 1.0 1.0 1.0
1.0 1.0 1.0 1.0 1.0 1.0 1.0 1.0
1.0 1.0 1.0 1.0 1.0 1.0 1.0 1.0
00000000: 0000 803f 0000 803f 0000 803f 0000 803f
00000010: 0000 803f 0000 803f 0000 803f 0000 803f
00000020: 0000 803f 0000 803f 0000 803f 0000 803f
00000030: 0000 803f 0000 803f 0000 803f 0000 803f
00000040: 0000 803f 0000 803f 0000 803f 0000 803f
00000050: 0000 803f 0000 803f 0000 803f 0000 803f
00000060: 0000 803f 0000 803f 0000 803f 0000 803f
00000070: 0000 803f 0000 803f 0000 803f 0000 803f

res_blocks.0.bn2.bias f4 [32]
0.0 0.0 0.0 0.0 0.0 0.0 0.0 0.0
0.0 0.0 0.0 0.0 0.0 0.0 0.0 0.0
0.0 0.0 0.0 0.0 0.0 0.0 0.0 0.0
0.0 0.0 0.0 0.0 0.0 0.0 0.0 0.0
00000000: 0000 0000 0000 0000 0000 0000 0000 0000
00000010: 0000 0000 0000 0000 0000 0000 0000 0000
00000020: 0000 0000 0000 0000 0000 0000 0000 0000
00000030: 0000 0000 0000 0000 0000 0000 0000 0000
00000040: 0000 0000 0000 0000 0000 0000 0000 0000
00000050: 0000 0000 0000 0000 0000 0000 0000 0000
00000060: 0000 0000 0000 0000 0000 0000 0000 0000
00000070: 0000 0000 0000 0000 0000 0000 0000 0000

res_blocks.0.bn2.running_mean f4 [32]
0.0 0.0 0.0 0.0 0.0 0.0 0.0 0.0
0.0 0.0 0.0 0.0 0.0 0.0 0.0 0.0
0.0 0.0 0.0 0.0 0.0 0.0 0.0 0.0
0.0 0.0 0.0 0.0 0.0 0.0 0.0 0.0
00000000: 0000 0000 0000 0000 0000 0000 0000 0000
00000010: 0000 0000 0000 0000 0000 0000 0000 0000
00000020: 0000 0000 0000 0000 0000 0000 0000 0000
00000030: 0000 0000 0000 0000 0000 0000 0000 0000
00000040: 0000 0000 0000 0000 0000 0000 0000 0000
00000050: 0000 0000 0000 0000 0000 0000 0000 0000
00000060: 0000 0000 0000 0000 0000 0000 0000 0000
00000070: 0000 0000 0000 0000 0000 0000 0000 0000

res_blocks.0.bn2.running_var f4 [32]
1.0 1.0 1.0 1.0 1.0 1.0 1.0 1.0
1.0 1.0 1.0 1.0 1.0 1.0 1.0 1.0
1.0 1.0 1.0 1.0 1.0 1.0 1.0 1.0
1.0 1.0 1.0 1.0 1.0 1.0 1.0 1.0
00000000: 0000 803f 0000 803f 0000 803f 0000 803f
00000010: 0000 803f 0000 803f 0000 803f 0000 803f
00000020: 0000 803f 0000 803f 0000 803f 0000 803f
00000030: 0000 803f 0000 803f 0000 803f 0000 803f
00000040: 0000 803f 0000 803f 0000 803f 0000 803f
00000050: 0000 803f 0000 803f 0000 803f 0000 803f
00000060: 0000 803f 0000 803f 0000 803f 0000 803f
00000070: 0000 803f 0000 803f 0000 803f 0000 803f

res_blocks.1.conv1.weight f4 [32, 32, 3, 3]
0.037187688 0.057508755 -0.02165895 0.054576825 -0.044595715 -0.052493267 0.039796963 0.052146927
0.054312713 -0.005382054 -0.045137625 0.013675922 -0.048751343 -0.03149443 0.0045195892 -0.025320724
-0.04791506 -0.058429595 0.038962062 -0.05836426 0.033995662 -0.03568103 -0.03247915 0.052034028
0.042637262 -0.037552886 0.0034493613 0.043166466 0.024436686 -0.03960261 -0.05722886 0.029059922
0.009437565 0.014177456 0.00013268531 -0.015641566 0.008261309 -0.028218277 0.047085833 -0.037071723
0.02857161 -0.0435179 -0.03117325 -0.032327488 -0.029769752 -0.05567683 0.032242488 -0.016822515
-0.028845163 0.0075096553 0.026524397 -0.007925434 -0.039421305 -0.008143193 0.04434154 -0.020399503
0.033330664 -0.040712226 0.02167925 0.0012232912 -0.05578316 0.05223233 -0.05129636 0.014785698
0.014142094 0.056530893 -0.04790819 0.038721625 0.028481366 0.02634591 0.02150439 -0.018668005
-0.039350364 -0.048152044 -0.032920517 0.02198948 -0.019633057 -0.026912984 -0.037157744 -0.014063279
0.040651802 -0.057380926 -0.055313032 0.028028918 -0.0143224755 0.011097335 0.027357422 -0.00013034615
0.025441116 0.020179132 -0.046646446 0.051126067 -0.029813016 0.056497555 -0.029395094 -0.037266426
0.01571616 -0.012488751 -0.0048646596 -0.025835373 -0.0017758926 0.03849459 -0.0026413992 0.008530129
0.006984857 -0.037344705 -0.039175216 -0.051361725 -0.056098223 -0.016764281 -0.051723007 -0.056865618
-0.034519006 0.051032845 -0.055505384 0.023585623 0.016830318 -0.048177663 -0.0060093678 -0.020139696
-0.030168714 0.03546714 0.054410808 0.042788737 -0.05017733 0.027303023 -0.025446195 0.04363114
0.05313907 0.0276663 -0.020180184 0.053946406 -0.057222657 -0.012664348 0.01661728 -0.047351107
-0.05193688 0.030835513 0.02528672 0.017665781 0.012256199 0.032148413 0.032421254 0.022735514
0.009502373 -0.030818662 -0.014119953 -0.023133107 0.027875898 0.047772273 -0.0092768585 -0.015213382
0.03495022 -0.041412868 -0.017261762 -0.038849216 0.046383318 -0.032893065 0.007821858 -0.00530305
-0.026570272 -0.033086058 -0.012220135 0.012616821 -0.01645755 0.027827106 0.05318557 -0.0065350374
0.0034840482 -0.007835823 -0.011121711 0.023086028 0.03242017 0.013183562 -0.0113971755 0.018796189
0.05795141 0.003991201 0.033710755 0.056655824 -0.041979477 0.044693545 -0.010046622 0.03015088
0.010439712 0.017672138 -0.028797923 -0.0297893 -0.024172615 0.00087678793 0.0145109845 0.01975486
-0.057946213 0.057418358 -0.044502556 -0.03533003 0.051611576 0.045636665 -0.027147017 0.01122863
0.05193357 -0.0487471 0.032175425 0.009811302 -0.032294814 0.05524592 -0.010630503 0.029121231
-0.031113667 -0.05052256 -0.011988833 0.0021033597 -0.056026354 0.006201473 -0.0563368 0.043030906
-0.012375115 0.03246885 0.043328796 0.032878123 0.030648254 -0.02407395 -0.012516694 -0.04823202
-0.04944256 0.007484248 0.05624452 -0.046573468 0.028826702 -0.045373086 0.009106108 0.020421166
-0.007599758 0.030456718 -0.013162152 -0.0023106588 0.055583686 -0.051574662 0.002104329 -0.0534708
0.030075064 -0.0025515913 0.04594268 0.04597076 0.0036191288 -0.030267444 -0.03574836 -0.046019927
-0.016180618 -0.00056067953 -0.0423951 0.004508596 0.0173048 -0.02578158 -0.024413526 -0.05114312
00000000: 1e52 183d 4d8e 6b3d 1c6e b1bc f38b 5f3d
00000010: ffa9 36bd 2e03 57bd 2402 233d 0498 553d
00000020: 0277 5e3d f15b b0bb 3be2 38bd f910 603c
00000030: 7daf 47bd 4e00 01bd 1019 943b 686d cfbc
00000040: 9542 44bd df53 6fbd af96 1f3d 5d0f 6fbd
00000050: 093f 0b3d 4626 12bd db08 05bd a221 553d
00000060: 69a4 2e3d 0ed1 19bd ae0e 623b 52cf 303d
00000070: 722f c83c 5936 22bd cf68 6abd 130f ee3c
00000080: 04a0 1a3c 8f48 683c 7121 0b39 be22 80bc
00000090: 715a 073c 042a e7bc 13dd 403d 85d8 17bd
000000a0: 020f ea3c d33f 32bd 0b5f ffbc d469 04bd
000000b0: b2df f3bc 630d 64bd b310 043d 5fcf 89bc
000000c0: b14c ecbc 8e13 f63b b149 d93c aed9 01bc
000000d0: 3c78 21bd 076b 05bc 7a9f 353d dc1c a7bc
000000e0: bc85 083d ddc1 26bd af98 b13c d756 a03a
000000f0: e27c 64bd 91f1 553d 221c 52bd b63f 723c
00000100: 3eb4 673c f08c 673d 613b 44bd 919a 1e3d
00000110: c151 e93c 61d3 d73c f929 b03c a5ed 98bc
00000120: d92d 21bd 143b 45bd aad7 06bd 4823 b43c
00000130: 81d5 a0bc 9e78 dcbc b832 18bd ab69 66bc
00000140: 8182 263d 4308 6bbd eb8f 62bd e79c e53c
00000150: d1a8 6abc 99d1 353c ac1c e03c 87ad 08b9
00000160: e369 d03c b54e a53c 5810 3fbd 9169 513d
00000170: 6d3a f4bc fb69 673d fbcd f0bc aea4 18bd
00000180: 2dbf 803c 9e9d 4cbc b967 9fbb b4a4 d3bc
00000190: 11c5 e8ba 81ac 1d3d 531b 2dbb f4c1 0b3c
000001a0: 3ae1 e43b c3f6 18bd 3176 20bd ac60 52bd
000001b0: 40c7 65bd 3f55 89bc 81db 53bd eceb 68bd
000001c0: cd63 0dbd d107 513d 9d59 63bd a336 c13c
000001d0: bcdf 893c f155 45bd 3bea c4bb 01fc a4bc
000001e0: 6124 f7bc fe45 113d dedd 5e3d 3e43 2f3d
000001f0: be86 4dbd 97aa df3c 8a74 d0bc 91b6 323d
00000200: 5aa8 593d 70a4 e23c ea50 a5bc e8f6 5c3d
00000210: 4e62 6abd 207e 4fbc f620 883c 3cf3 41bd
00000220: c4bb 54bd c29a fc3c 1826 cf3c d4b7 903c
00000230: 39ce 483c 0eae 033d 26cc 043d d43f ba3c
00000240: d7af 1b3c 6b77 fcbc 6057 67bc a481 bdbc
00000250: ff5b e43c dcac 433d f7fd 17bc 8d41 79bc
00000260: f627 0f3d 8aa0 29bd 8a68 8dbc 5b20 1fbd
00000270: 6ffc 3d3d e1ba 06bd 4027 003c 35c5 adbb
00000280: e6a9 d9bc 3f85 07bd f636 48bc c8b6 4e3c
00000290: fcd1 86bc acf5 e33c 1dd9 593d de23 d6bb
000002a0: a154 643b d361 00bc d637 36bc e91e bd3c
000002b0: 03cb 043d deff 573c 38bb 3abc 77fa 993c
000002c0: 755e 6d3d 9fc8 823b 4a14 0a3d f00f 683d
000002d0: acf2 2bbd 9410 373d 969a 24bc fafe f63c
000002e0: 530b 2b3c 29c5 903c 9fe9 ebbc b108 f4bc
000002f0: a605 c6bc 3ed8 653a 7bbf 6d3c f2d4 a13c
00000300: 0259 6dbd 832f 6b3d 5048 36bd 39b6 10bd
00000310: a966 533d 83ed 3a3d 6c63 debc 4af8 373c
00000320: 4cb8 543d 0aab 47bd 61ca 033d 95bf 203c
00000330: 9147 04bd 8c49 623d 902b 2ebc a68f ee3c
00000340: 17e2 febc bef0 4ebd cf6c 44bc 85d8 093b
00000350: e47b 65bd ba35 cb3b 6bc1 66bd 2d41 303d
00000360: ffc0 4abc 0ffe 043d 8979 313d 36ab 063d
00000370: 0c12 fb3c bb36 c5bc d212 4dbc f08e 45bd
00000380: 4884 4abd 6c3e f53b a760 663d d2c3 3ebd
00000390: fa25 ec3c 21d9 39bd c931 153c 4a4a a73c
000003a0: 6407 f9bb 5e80 f93c 11a6 57bc 6c6e 17bb
000003b0: b8ab 633d f43f 53bd c8e8 093b 3304 5bbd
000003c0: fb5f f63c 9938 27bb 642e 3c3d d64b 3c3d
000003d0: e82e 6d3b 6ef3 f7bc df6c 12bd 647f 3cbd
000003e0: 378d 84bc 91fa 12ba 7ca6 2dbd d8bc 933b
000003f0: ccc2 8d3c e433 d3bc e0fe c7bc 737b 51bd

res_blocks.1.bn1.weight f4 [32]
1.0 1.0 1.0 1.0 1.0 1.0 1.0 1.0
1.0 1.0 1.0 1.0 1.0 1.0 1.0 1.0
1.0 1.0 1.0 1.0 1.0 1.0 1.0 1.0
1.0 1.0 1.0 1.0 1.0 1.0 1.0 1.0
00000000: 0000 803f 0000 803f 0000 803f 0000 803f
00000010: 0000 803f 0000 803f 0000 803f 0000 803f
00000020: 0000 803f 0000 803f 0000 803f 0000 803f
00000030: 0000 803f 0000 803f 0000 803f 0000 803f
00000040: 0000 803f 0000 803f 0000 803f 0000 803f
00000050: 0000 803f 0000 803f 0000 803f 0000 803f
00000060: 0000 803f 0000 803f 0000 803f 0000 803f
00000070: 0000 803f 0000 803f 0000 803f 0000 803f

res_blocks.1.bn1.bias f4 [32]
0.0 0.0 0.0 0.0 0.0 0.0 0.0 0.0
0.0 0.0 0.0 0.0 0.0 0.0 0.0 0.0
0.0 0.0 0.0 0.0 0.0 0.0 0.0 0.0
0.0 0.0 0.0 0.0 0.0 0.0 0.0 0.0
00000000: 0000 0000 0000 0000 0000 0000 0000 0000
00000010: 0000 0000 0000 0000 0000 0000 0000 0000
00000020: 0000 0000 0000 0000 0000 0000 0000 0000
00000030: 0000 0000 0000 0000 0000 0000 0000 0000
00000040: 0000 0000 0000 0000 0000 0000 0000 0000
00000050: 0000 0000 0000 0000 0000 0000 0000 0000
00000060: 0000 0000 0000 0000 0000 0000 0000 0000
00000070: 0000 0000 0000 0000 0000 0000 0000 0000

res_blocks.1.bn1.running_mean f4 [32]
0.0 0.0 0.0 0.0 0.0 0.0 0.0 0.0
0.0 0.0 0.0 0.0 0.0 0.0 0.0 0.0
0.0 0.0 0.0 0.0 0.0 0.0 0.0 0.0
0.0 0.0 0.0 0.0 0.0 0.0 0.0 0.0
00000000: 0000 0000 0000 0000 0000 0000 0000 0000
00000010: 0000 0000 0000 0000 0000 0000 0000 0000
00000020: 0000 0000 0000 0000 0000 0000 0000 0000
00000030: 0000 0000 0000 0000 0000 0000 0000 0000
00000040: 0000 0000 0000 0000 0000 0000 0000 0000
00000050: 0000 0000 0000 0000 0000 0000 0000 0000
00000060: 0000 0000 0000 0000 0000 0000 0000 0000
00000070: 0000 0000 0000 0000 0000 0000 0000 0000

res_blocks.1.bn1.running_var f4 [32]
1.0 1.0 1.0 1.0 1.0 1.0 1.0 1.0
1.0 1.0 1.0 1.0 1.0 1.0 1.0 1.0
1.0 1.0 1.0 1.0 1.0 1.0 1.0 1.0
1.0 1.0 1.0 1.0 1.0 1.0 1.0 1.0
00000000: 0000 803f 0000 803f 0000 803f 0000 803f
00000010: 0000 803f 0000 803f 0000 803f 0000 803f
00000020: 0000 803f 0000 803f 0000 803f 0000 803f
00000030: 0000 803f 0000 803f 0000 803f 0000 803f
00000040: 0000 803f 0000 803f 0000 803f 0000 803f
00000050: 0000 803f 0000 803f 0000 803f 0000 803f
00000060: 0000 803f 0000 803f 0000 803f 0000 803f
00000070: 0000 803f 0000 803f 0000 803f 0000 803f

res_blocks.1.conv2.weight f4 [32, 32, 3, 3]
-0.0155882435 -0.012547939 0.05380728 0.0015712064 0.039284557 0.015418378 -0.013392759 -0.010401842
-0.044044785 0.024767898 -0.04757487 0.049061876 0.009456474 -0.025871407 -0.022910979 0.00051547703
0.0012356754 0.017434655 -0.006555268 -0.027871473 0.029434636 -0.03651127 0.047702093 0.025206828
0.013815175 0.05783099 -0.051200096 0.0020255074 -0.0010039941 -0.022759508 -0.045929305 -0.03651103
-0.022566041 0.055403184 -0.019373072 0.04748041 -0.022075178 0.05578413 0.033731814 0.025755033
0.042659298 0.03653966 -0.02809483 -0.028990513 -0.026542975 -0.031224802 0.0481842 -0.013431238
-0.04750412 -0.04325871 0.001990146 0.05147399 -0.010107966 0.0028452566 -0.0057102237 0.016654987
-0.04988254 0.049975872 0.023813061 -0.054049574 0.047480404 -0.057781074 0.0057839383 -0.04728272
-0.037886668 -0.05372062 -0.05839587 -0.054428723 0.00040502418 -0.055141285 -0.04245901 0.03867328
0.0036850183 0.058562085 -0.02581401 -0.039063632 -0.052834067 0.031012446 0.046198677 0.00804164
-0.038615134 -0.04974816 -0.022119073 0.026169933 0.047934487 0.051413402 0.050162006 -0.05488402
-0.047963317 -0.057844013 0.016308274 0.024435809 -0.055773847 -0.05332214 0.0048181997 -0.022894463
-0.036714442 0.026370805 0.05795599 0.010545942 -0.054557256 -0.021475961 0.052989695 0.013252213
0.042328093 -0.013114203 0.054309607 -0.04928196 0.022920152 -0.03771145 -0.0060147345 0.051012494
0.021542182 0.01002965 -0.012837045 0.020489747 -0.023827588 -0.007816772 0.03691844 -0.00904654
-0.025466966 -0.015294038 0.039820988 0.010490477 -0.04641716 0.009400581 -0.03968586 -0.007752716
0.012518977 0.045365766 -0.034485787 -0.034606382 0.054599445 0.024338238 -0.0021810431 0.027899759
0.052441977 0.011526875 0.02220577 -0.04094822 -0.03830867 -0.043816146 0.0067267353 -0.030126974
-0.009047193 0.015189268 0.03106279 -0.04657764 -0.030743366 -0.022994196 -0.036746882 0.030511376
0.052207533 0.022979895 -0.04747204 -0.011408478 0.011393277 0.04340817 0.018548898 0.052937258
0.02721328 -0.029567707 0.058607217 0.031100433 0.023603689 -0.023021052 0.011344239 -0.038005
-0.042935614 0.05878667 0.005181105 -0.04444227 0.011679538 0.052815057 -0.024727134 0.0480372
0.05112735 0.016189842 -0.026305085 0.026315508 -0.040943585 -0.050728228 0.027122088 -0.025395436
0.024881512 -0.002932662 -0.010525367 0.05763397 -0.01953382 -0.02768545 -0.03722055 -0.0064614983
-0.0043314737 -0.052506663 -0.011528723 -0.057648446 -0.029115977 0.0018362398 -0.023923079 0.050731037
0.053340476 0.04497563 -0.02935908 0.00734798 0.027698213 -0.048686173 -0.050430525 -0.0029575569
0.05086858 -0.014631735 0.010746856 0.036917217 0.046268508 0.00015875313 -0.03730503 0.026585571
0.00071448745 0.008500977 -0.05115769 -0.035977647 -0.03755905 0.052768376 0.03768212 0.012695178
-0.038833026 -0.032117087 -0.01783682 -0.04645035 0.031534046 0.036010344 0.040689226 -0.054669842
0.028391227 0.0017193807 0.0150306765 -0.04829584 0.02528726 0.030479975 -0.02129478 0.035003275
-0.030978804 0.037191167 0.029100958 -0.056740973 0.037333805 -0.029331889 -0.0055802567 -0.02016967
-0.035444543 0.008520063 0.011434377 -0.04264806 -0.024922421 0.05280059 0.043241993 0.015394178
00000000: d565 7fbc df95 4dbc 0665 5c3d f0f0 cd3a
00000010: d8e8 203d 5d9d 7c3c 4d6d 5bbc 7d6c 2abc
00000020: 4e68 34bd 0ce6 ca3c dedd 42bd 1bf5 483d
00000030: 54ef 1a3c 46f0 d3bc ceaf bbbc 1421 073a
00000040: 63f6 a13a 1fd3 8e3c 93cd d6bb b752 e4bc
00000050: e820 f13c d78c 15bd 4563 433d 8d7e ce3c
00000060: 0b59 623c 30e0 6c3d 31b7 51bd 60be 043b
00000070: 7498 83ba 2672 babc 5e20 3cbd 978c 15bd
00000080: 6bdc b8bc 73ee 623d 47b4 9ebc d27a 423d
00000090: 01d7 b4bc e67d 643d 5f2a 0a3d 38fc d23c
000000a0: 84bb 2e3d 9caa 153d 2127 e6bc 837d edbc
000000b0: a770 d9bc 28cb ffbc cc5c 453d b20e 5cbc
000000c0: ae93 42bd 0c30 31bd 1c6d 023b 64d6 523d
000000d0: e29b 25bc 7c77 3a3b d41c bbbb 0a70 883c
000000e0: a251 4cbd 80b3 4c3d 9c13 c33c 1663 5dbd
000000f0: d07a 423d d9ab 6cbd 3187 bd3b 87ab 41bd
00000100: 0d2f 1bbd 270a 5cbd 8230 6fbd a7f0 5ebd
00000110: 6d59 d439 d4db 61bd 80e9 2dbd e067 1e3d
00000120: 5980 713b ccde 6f3d e777 d3bc 3001 20bd
00000130: 8968 58bd d00d fe3c d33a 3d3d 15c1 033c
00000140: e72a 1ebd bac4 4bbd 0f33 b5bc 5462 d63c
00000150: f456 443d dc96 523d ad76 4d3d 11ce 60bd
00000160: 2f75 44bd d8ed 6cbd ee98 853c 9b2d c83c
00000170: 1e73 64bd 5168 5abd fde1 9d3b 2b8d bbbc
00000180: e261 16bd 9607 d83c 4363 6d3d e3c8 2c3c
00000190: 6e77 5fbd 5bee afbc b90b 593d cf1f 593c
000001a0: 3960 2d3d f4dc 56bc c073 5e3d e1db 49bd
000001b0: 0bc3 bb3c 5277 1abd 4017 c5bb 7af2 503d
000001c0: 3b79 b03c 6753 243c 7852 52bc 1dda a73c
000001d0: 1332 c3bc eb11 00bc ca37 173d f037 14bc
000001e0: 19a0 d0bc d893 7abc 551b 233d 40e0 2b3c
000001f0: ec1f 3ebd e504 1a3c a48d 22bd 7f0a febb
00000200: 651c 4d3c 74d1 393d f840 0dbd 6cbf 0dbd
00000210: aba3 5f3d fc60 c73c d5ef 0ebb 098e e43c
00000220: 66cd 563d 38db 3c3c e0e8 b53c 52b9 27bd
00000230: 8de9 1cbd 8f78 33bd f26b dc3b d8cc f6bc
00000240: ae3a 14bc 68dc 783c 6477 fe3c 32c8 3ebd
00000250: 83d9 fbbc 535e bcbc e683 16bd fef2 f93c
00000260: 91d7 553d 5540 bc3c 0b72 42bd a0ea 3abc
00000270: deaa 3a3c c4cc 313d dcf3 973c bdd4 583d
00000280: 62ee de3c fa37 f2bc 1f0e 703d 56c6 fe3c
00000290: 865c c13c a596 bcbc 30dd 393c 22ab 1bbd
000002a0: 41dd 2fbd 4bca 703d 42c6 a93b 1909 36bd
000002b0: 885b 3f3c 9a54 583d 8f90 cabc a8c2 443d
000002c0: ea6a 513d 8fa0 843c c37d d7bc 9f93 d73c
000002d0: 76b4 27bd 67c8 4fbd 242f de3c 170a d0bc
000002e0: 50d4 cb3c e731 40bb 9772 2cbc 9911 6c3d
000002f0: 6405 a0bc 99cc e2bc 9374 18bd faba d3bb
00000300: 09ef 8dbb 3a11 57bd f8e2 3cbc c720 6cbd
00000310: a184 eebc fcad f03a 55fa c3bc 59cb 4f3d
00000320: 8b7b 5a3d 5e38 383d 7482 f0bc 53c7 f03b
00000330: 5de7 e23c 276b 47bd 3d90 4ebd 92d3 41bb
00000340: 925b 503d f2b9 6fbc 9513 303c 8236 173d
00000350: 0c84 3d3d f876 2639 29cd 18bd fcc9 d93c
00000360: 714c 3b3a af47 0b3c ba8a 51bd 4c5d 13bd
00000370: 85d7 19bd a723 583d 9158 1a3d 70ff 4f3c
00000380: 610f 1fbd 358d 03bd 861e 92bc b942 3ebd
00000390: d829 013d 957f 133d bfa9 263d 7ced 5fbd
000003a0: b894 e83c d85c e13a 3a43 763c dcd1 45bd
000003b0: 3a27 cf3c 24b1 f93c 6472 aebc 985f 0f3d
000003c0: 43c7 fdbc c455 183d 2265 ee3c 3969 68bd
000003d0: 55eb 183d 6e49 f0bc 96da b6bb dd3a a5bc
000003e0: 4c2e 11bd bc97 0b3c 4157 3b3c bbaf 2ebd
000003f0: 1b2a ccbc 6e45 583d 841e 313d dd37 7c3c

res_blocks.1.bn2.weight f4 [32]
1.0 1.0 1.0 1.0 1.0 1.0 1.0 1.0
1.0 1.0 1.0 1.0 1.0 1.0 1.0 1.0
1.0 1.0 1.0 1.0 1.0 1.0 1.0 1.0
1.0 1.0 1.0 1.0 1.0 1.0 1.0 1.0
00000000: 0000 803f 0000 803f 0000 803f 0000 803f
00000010: 0000 803f 0000 803f 0000 803f 0000 803f
00000020: 0000 803f 0000 803f 0000 803f 0000 803f
00000030: 0000 803f 0000 803f 0000 803f 0000 803f
00000040: 0000 803f 0000 803f 0000 803f 0000 803f
00000050: 0000 803f 0000 803f 0000 803f 0000 803f
00000060: 0000 803f 0000 803f 0000 803f 0000 803f
00000070: 0000 803f 0000 803f 0000 803f 0000 803f

res_blocks.1.bn2.bias f4 [32]
0.0 0.0 0.0 0.0 0.0 0.0 0.0 0.0
0.0 0.0 0.0 0.0 0.0 0.0 0.0 0.0
0.0 0.0 0.0 0.0 0.0 0.0 0.0 0.0
0.0 0.0 0.0 0.0 0.0 0.0 0.0 0.0
00000000: 0000 0000 0000 0000 0000 0000 0000 0000
00000010: 0000 0000 0000 0000 0000 0000 0000 0000
00000020: 0000 0000 0000 0000 0000 0000 0000 0000
00000030: 0000 0000 0000 0000 0000 0000 0000 0000
00000040: 0000 0000 0000 0000 0000 0000 0000 0000
00000050: 0000 0000 0000 0000 0000 0000 0000 0000
00000060: 0000 0000 0000 0000 0000 0000 0000 0000
00000070: 0000 0000 0000 0000 0000 0000 0000 0000

res_blocks.1.bn2.running_mean f4 [32]
0.0 0.0 0.0 0.0 0.0 0.0 0.0 0.0
0.0 0.0 0.0 0.0 0.0 0.0 0.0 0.0
0.0 0.0 0.0 0.0 0.0 0.0 0.0 0.0
0.0 0.0 0.0 0.0 0.0 0.0 0.0 0.0
00000000: 0000 0000 0000 0000 0000 0000 0000 0000
00000010: 0000 0000 0000 0000 0000 0000 0000 0000
00000020: 0000 0000 0000 0000 0000 0000 0000 0000
00000030: 0000 0000 0000 0000 0000 0000 0000 0000
00000040: 0000 0000 0000 0000 0000 0000 0000 0000
00000050: 0000 0000 0000 0000 0000 0000 0000 0000
00000060: 0000 0000 0000 0000 0000 0000 0000 0000
00000070: 0000 0000 0000 0000 0000 0000 0000 0000

res_blocks.1.bn2.running_var f4 [32]
1.0 1.0 1.0 1.0 1.0 1.0 1.0 1.0
1.0 1.0 1.0 1.0 1.0 1.0 1.0 1.0
1.0 1.0 1.0 1.0 1.0 1.0 1.0 1.0
1.0 1.0 1.0 1.0 1.0 1.0 1.0 1.0
00000000: 0000 803f 0000 803f 0000 803f 0000 803f
00000010: 0000 803f 0000 803f 0000 803f 0000 803f
00000020: 0000 803f 0000 803f 0000 803f 0000 803f
00000030: 0000 803f 0000 803f 0000 803f 0000 803f
00000040: 0000 803f 0000 803f 0000 803f 0000 803f
00000050: 0000 803f 0000 803f 0000 803f 0000 803f
00000060: 0000 803f 0000 803f 0000 803f 0000 803f
00000070: 0000 803f 0000 803f 0000 803f 0000 803f

policy_conv.weight f4 [2, 32, 1, 1]
0.04683343 -0.104515545 -0.16677527 0.027523473 0.10789176 0.08524114 -0.034184888 0.06516407
0.17567362 -0.11658788 0.11796005 0.03542782 -0.051003397 -0.037220325 0.023712806 0.016854018
-0.17316462 0.111155316 0.04384326 0.02184195 0.010494565 -0.07348699 -0.07921683 0.031230245
0.009569758 0.056148134 -0.0044540577 -0.041795176 0.0024639047 0.008236843 -0.16410176 -0.0139599
-0.0059760017 -0.05152237 0.123686545 0.04313477 0.027033726 -0.08820941 0.14328197 0.10278339
0.050780565 0.063831 0.0040506073 -0.1535155 -0.07155517 -0.06851855 0.16187276 0.13044542
-0.14741722 -0.009227947 0.04155241 -0.07332203 -0.12054348 -0.12901662 -0.11517404 -0.15420927
0.10942213 0.09318763 -0.15083297 -0.16614978 -0.11693984 -0.03663832 0.040143356 -0.10962515
00000000: 69d4 3f3d 3f0c d6bd 23c7 2abe e878 e13c
00000010: 5bf6 dc3d e892 ae3d 7405 0cbd bd74 853d
00000020: c9e3 333e a0c5 eebd 0a95 f13d c31c 113d
00000030: f0e8 50bd 5774 18bd 5c41 c23c 7011 8a3c
00000040: 1152 31be 66a5 e33d fd94 333d e4ed b23c
00000050: 65f1 2b3c 5980 96bd 6f3c a2bd 92d6 ff3c
00000060: 79ca 1c3c 96fb 653d 58f3 91bb 6b31 2bbd
00000070: 7679 213b d3f3 063c 4b0a 28be 10b8 64bc
00000080: 56d2 c3bb 1f09 53bd 5f4f fd3d 16ae 303d
00000090: d575 dd3c 23a7 b4bd 82b8 123e 1980 d23d
000000a0: 48ff 4f3d d4b9 823d f5ba 843b 2b33 1dbe
000000b0: 848b 92bd 7453 8cbd f9c1 253e 7c93 053e
000000c0: 8af4 16be d130 17bc dc32 2a3d dc29 96bd
000000d0: 80df f6bd ef1c 04be 5ee0 ebbd 09e9 1dbe
000000e0: b618 e03d 28d9 be3d f573 1abe 2b23 2abe
000000f0: 287e efbd 1012 16bd 5c6d 243d 2783 e0bd

policy_bn.weight f4 [2]
1.0 1.0
00000000: 0000 803f 0000 803f

policy_bn.bias f4 [2]
0.0 0.0
00000000: 0000 0000 0000 0000

policy_bn.running_mean f4 [2]
0.0 0.0
00000000: 0000 0000 0000 0000

policy_bn.running_var f4 [2]
1.0 1.0
00000000: 0000 803f 0000 803f
